advance/model_save/model.pth (torch, 251292 bytes, 10 tensors)

conv1.weight f4 [6, 3, 5, 5]
000000 02 a1 d7 bc ea df 5a 3d f4 d8 cc 3c 7f ce c7 bd
       -0.026321892 0.053436197 0.025005795 -0.09756183
000010 3c 4f d6 bd b6 30 a5 3d e5 d0 8b bd fb 3b 18 3d
       -0.104643315 0.080659315 -0.06826953 0.037166577
000020 7f 0a da 3d ed 2c ec bc 03 68 e4 3d 15 f7 d7 3d
       0.10646533 -0.028830016 0.11152651 0.10545174
000030 1a 5e ea bd e9 5f 08 bc b7 d3 8c 3b 04 0c 31 3c
       -0.1144373 -0.008323648 0.0042976993 0.010806087
000040 ee d9 a7 bd 62 83 b6 3d 56 59 64 3d 5f 6d 0a 3d
       -0.08195864 0.08911778 0.05574926 0.03379571
000050 86 dc 88 3d 3f 61 c6 3d c5 bd 7b bd 84 6e ba bc
       0.066826865 0.09686517 -0.061460275 -0.022757776
000060 dd fd 81 bc 8e b4 85 bc 29 c7 da 3d ca 49 e4 3c
       -0.015868122 -0.016321447 0.10682518 0.027867217
000070 fb 34 93 bd 31 39 63 3d 93 d9 e0 3d 7f c9 51 bd
       -0.071878396 0.055474464 0.10978999 -0.051217552
000080 d7 e8 bf bc 40 71 5a bd 21 e1 69 3d 90 9b 4e bd
       -0.023426456 -0.05333066 0.057099465 -0.050441325
000090 6c 6f 9d bd 94 0d 6c 3d 30 2b c7 bd 73 c6 d7 bb
       -0.07687268 0.057630137 -0.09725034 -0.0065849363
0000a0 08 31 ea 3d 7d c0 d2 3d 88 62 cd 3d 10 0b 89 bc
       0.11435133 0.102906205 0.10028559 -0.016728908
0000b0 28 ef 41 3d a1 cd 36 3d 8a d2 53 bd da 55 60 bd
       0.047347218 0.044629697 -0.051714458 -0.054769374
0000c0 a0 41 2c 3d d2 a0 84 3d 2f ad 4f bc d1 3e db 3d
       0.042054772 0.064759865 -0.0126755675 0.10705341
0000d0 7f 69 eb bd d1 6d 4b 3d ed 95 41 bd 42 45 c1 bd
       -0.11494731 0.049665276 -0.04726212 -0.09437038
0000e0 e1 8c a8 bd 1f c9 e7 3d 9b cb 37 bd 0b 9c 38 3c
       -0.082299955 0.11317658 -0.044871908 0.011267672
0000f0 3e 90 46 3d 08 e0 e9 3c 8b 4a c5 3c a9 94 c0 bd
       0.048477404 0.02854921 0.024083396 -0.09403355
000100 d1 da ce bd 6e 1d 91 bc 40 00 96 3d f6 40 31 3d
       -0.1010033 -0.017714228 0.073242664 0.043274842
000110 d3 aa 91 3c 79 23 e7 3a 49 23 88 bd a4 51 06 bd
       0.01778165 0.0017634473 -0.06647355 -0.032792702
000120 1d f3 e4 bd 2e 64 5d bd 52 90 12 3d 62 b4 e9 bc
       -0.11179183 -0.054050617 0.035782166 -0.028528396
000130 5f e6 b0 3c a6 31 d3 bd 27 6d 91 3d 96 4f eb bd
       0.021594224 -0.10312204 0.07100897 -0.11489789
000140 ad 13 e7 3d 26 72 bb bd 65 e3 d9 bc 85 a5 e5 bd
       0.1128305 -0.091526315 -0.026597688 -0.11213211
000150 f6 0a 19 3d a6 14 62 3d d0 dc 0f bd 90 19 86 bd
       0.03736397 0.055195473 -0.035122693 -0.065478444
000160 60 e2 86 bd c4 99 50 3d 25 c6 bc 3d f7 75 a5 3d
       -0.06586146 0.050927892 0.092174806 0.08079141
000170 bf fb ea bd c8 67 5b bd 12 a4 a7 3d f8 3c 1f 3c
       -0.11473798 -0.05356577 0.08185591 0.009719126
000180 d2 73 9c 3d d1 1e 1b bd 0a 87 d3 3d 1b 2d f4 bc
       0.076392785 -0.037871186 0.10328491 -0.029806664
000190 98 3e ec bc 12 82 a4 3d 7c 4a 87 bd 8e 73 52 3c
       -0.02883844 0.080326214 -0.06606004 0.012844933
0001a0 cc 8c c4 3d 09 f1 ac bc cf bb 8d 3c ef 2a 84 3d
       0.095971674 -0.021111028 0.017301468 0.064535014
0001b0 c5 8a 73 3d bc c0 8b 3d ff d9 14 3d 04 e1 fb bb
       0.059458513 0.068238705 0.03634071 -0.007686736
0001c0 1e d5 06 3d e1 bd c9 bd 93 fa af bd f6 d9 20 3d
       0.03291809 -0.0985067 -0.08592715 0.039270364
0001d0 ec 41 51 bd 91 35 74 bb 50 a8 07 3c 0c 57 8a bd
       -0.05108826 -0.0037263373 0.008279875 -0.06754884
0001e0 fc be 49 3b 11 5b 23 3d c0 54 86 3d f3 7a 56 3d
       0.0030784002 0.03988177 0.065591335 0.052363347
0001f0 d9 72 9b 3d 43 4b 8a 3c 37 8b 9a bc b6 6b d9 bc
       0.07590265 0.01688159 -0.018865211 -0.026540618
000200 8d c1 ba 3d 3e b3 b0 3d 7a 6b 24 3d a1 33 56 3d
       0.09118948 0.08627938 0.04014156 0.05229533
000210 aa e9 8a bd 94 b7 e2 bc 48 9d 8a 3d 79 e7 80 3d
       -0.06782849 -0.027675427 0.0676828 0.0629415
000220 dd 80 b4 3c a0 ac 7a 3d b5 a6 d3 3d b0 63 81 3d
       0.022034103 0.061199784 0.10334531 0.06317842
000230 a7 4d 2a bd 6b bf 7f bd 64 69 30 bd 76 a5 91 3d
       -0.04157796 -0.06243841 -0.04306926 0.07111637
000240 e0 8b 20 bd af ad 81 3d b1 5e b1 3d 78 f4 df 3c
       -0.039195895 0.06331956 0.08660639 0.027338251
000250 42 43 61 bd c5 af 17 bc 75 95 97 3d 97 e1 05 bd
       -0.054995783 -0.009258215 0.074015535 -0.032685842
000260 0b ab a9 3c 13 25 71 bd a0 67 5f bd e3 6f ab bc
       0.020711442 -0.058873247 -0.054542184 -0.020927375
000270 05 ac 20 3d 28 99 8c bd 0e 95 8d 3d fa 4d 8c 3d
       0.03922655 -0.0686515 0.069131956 0.0685081
000280 14 8a 37 3d 3a 65 7d bc 74 d9 7b bc ed 99 bc 3c
       0.044809416 -0.015466029 -0.015371669 0.023022616
000290 94 5c e1 bd 80 d0 91 3d 20 c1 e5 bd 92 cf 70 3d
       -0.11003986 0.07119846 -0.11218476 0.058791704
0002a0 80 68 9d 3d 68 c3 65 bd bb 7a 60 bd f4 cf 96 bd
       0.076859474 -0.056094557 -0.054804545 -0.07363883
0002b0 a6 45 e4 3d ce 91 b5 3c f4 2e be 3d e6 3d 13 bd
       0.11146097 0.022164252 0.09286299 -0.035947703
0002c0 20 e1 d1 bd c3 8b 1b 3d 8e bb bc 3b 6f ac d9 bd
       -0.10248017 0.037975084 0.005759663 -0.10628592
0002d0 86 00 d0 bd 51 9d b7 3b 5e 75 e8 3d 1f 98 bc 3d
       -0.1015635 0.0056034704 0.11350511 0.09208702
0002e0 46 31 eb 3d 7e a4 8f 3d 88 79 8c 3c f4 3d da bd
       0.114840075 0.07013796 0.017147794 -0.10656348
0002f0 8f 1c 4f 3c 2c c5 a4 3d 4a dc 0b 3d f0 3a e1 3d
       0.012641086 0.0804542 0.03414563 0.109975696
000300 9e 47 aa bc b5 c8 99 bc fe 53 01 bd 74 59 c5 3d
       -0.020786103 -0.018772462 -0.03157424 0.096362025
000310 9b be fb bc f6 43 36 bd d2 2e 3e 3d 88 49 5f 3d
       -0.030730536 -0.044498406 0.04643137 0.054513484
000320 c3 60 f0 3b 95 df 83 3d 5e 8c d7 3c 45 d7 8c 3d
       0.0073357536 0.06439129 0.02631205 0.06876997
000330 3b cb a8 bd 05 60 a8 bc 9f e6 43 3d cc 09 bc bd
       -0.08241888 -0.020553598 0.04782736 -0.09181556
000340 4b b8 01 bd 5f 41 a2 3d f1 3f 81 3c c0 5a 94 bd
       -0.031669896 0.07922625 0.01577756 -0.07243872
000350 43 3a d9 bc 51 89 ce 3d 6b 36 95 3d f2 52 71 3d
       -0.02651704 0.10084785 0.0728577 0.058916993
000360 7b 43 99 3d ed 14 c1 3d ba 4f 5d bd 34 59 38 3d
       0.07483574 0.094278194 -0.05403111 0.045006946
000370 58 dc d0 bd 1f 07 68 bd 93 3b 85 3d a8 c3 04 bd
       -0.10198277 -0.056647416 0.065055035 -0.032413155
000380 76 d9 79 3d 3f f5 d5 bc 8d fa bc 3d 79 6d e3 bc
       0.060998403 -0.026117919 0.09227476 -0.027762162
000390 bf 12 a6 3d e2 08 c1 3d d5 ad d4 bd 33 aa 8f 3d
       0.08109044 0.094255224 -0.10384718 0.07014885
0003a0 9c cc 5c bd 0c 23 c2 bd dc b8 54 bd 62 39 e8 3c
       -0.05390607 -0.09479341 -0.05193411 0.028347675
0003b0 35 4c 16 bd 3e c9 89 3c 3e c0 cd 3c c0 1e c0 bd
       -0.03669377 0.016819593 0.025116082 -0.09380865
0003c0 c9 7f b0 bd f1 52 e6 3d d4 86 b8 3c ab 04 2c 3d
       -0.08618123 0.112462886 0.022525229 0.04199664
0003d0 17 84 b9 bd 16 8b 7e bd 7e e1 22 bd 3d 5d 1c 3d
       -0.09058397 -0.06214436 -0.039765827 0.038174856
0003e0 a1 00 2b 3d 9c cc 92 3d 53 69 0b 3d 82 d4 fe bc
       0.041748647 0.071679324 0.034035992 -0.031107191
0003f0 4e 1d ec 3d 8f cd 8e bd 8f 28 be 3d 84 61 81 3d
       0.11529027 -0.06972801 0.0928508 0.06317428

conv1.bias f4 [6]
000000 0a 46 89 bc aa 7b 3f bd 4a 57 ac 3d b8 8e e6 3d
       -0.01675703 -0.046748795 0.084150866 0.1125769
000010 fe 2a 3a 3d 01 c2 de bd
       0.045451157 -0.10876847

conv2.weight f4 [16, 6, 5, 5]
000000 1a b8 eb bc 2b ea 03 bd 1e d1 40 3d d6 e3 8f 3d
       -0.02877431 -0.03220574 0.04707443 0.07025878
000010 53 aa 06 bc 8d cb 6e 3d a9 69 2a 3d a3 6f 78 3d
       -0.008219319 0.05829959 0.04160467 0.06065334
000020 25 50 72 3c 1d 57 14 3d 8f 5f 46 3c 11 85 4a bd
       0.014789616 0.03621589 0.012107744 -0.04944331
000030 63 30 1f 3d fb 91 80 bc 1d d0 6a bb e4 3a e6 bb
       0.038864505 -0.015694609 -0.0035829612 -0.0070260633
000040 19 b2 9c bd 5c c1 32 bd ba 21 7e 3d 03 5c b6 39
       -0.07651157 -0.043641433 0.062043883 0.000347823
000050 34 bf 80 3d ea d4 a4 3d 55 cb 32 3b c5 2e 19 bd
       0.06286469 0.08048423 0.002728184 -0.03739812
000060 50 b9 1a bd 2e 4d 81 bd 86 9c 85 bd 5e 0c 8e 3d
       -0.037774384 -0.06313549 -0.06523995 0.069359526
000070 96 63 8d 3d 8d 4d 3c 3c 0c 6c 2f 3c eb 33 a7 bd
       0.0690376 0.011493099 0.010706913 -0.081641994
000080 0c ba 82 bd 53 6d 95 bd 18 18 0c 3d 10 86 84 3d
       -0.06383142 -0.072962426 0.034202665 0.06470883
000090 c8 57 a7 bb 2a 9f 7c bd a3 68 b7 bc b5 ec 57 bd
       -0.0051069 -0.06167523 -0.022388762 -0.052715976
0000a0 db 74 64 bd 6d 00 8d bd 99 15 9a bd 72 2a 7c 3d
       -0.055775505 -0.06884847 -0.07523651 0.061563917
0000b0 6d 31 8d 3c 1f 24 25 bd 41 07 4a bd 4f b0 88 3d
       0.017235482 -0.04031765 -0.049323324 0.06674253
0000c0 2c 03 e5 3c a8 e0 9c 3d 8b 7f 65 bd e2 4f 93 3d
       0.027955614 0.07660037 -0.056029838 0.07192971
0000d0 21 6a 86 bd 6d 62 bd 3c d3 01 98 bd 19 12 02 3d
       -0.06563211 0.023118222 -0.07422223 0.03175554
0000e0 4b 3d 94 bd f8 22 20 bd f4 e0 8a bd 38 53 8d bd
       -0.07238253 -0.03909585 -0.06781188 -0.06900638
0000f0 58 7b 2d 3d 84 a9 d5 3b d9 38 50 bd 04 74 37 bd
       0.042353958 0.006520452 -0.050835464 -0.044788375
000100 54 5a 75 bd da 9e 74 3d ca c3 4d bd 9d 95 ea 3c
       -0.059900597 0.059721805 -0.050235547 0.028635794
000110 08 fd 98 3d 4b 63 8a 3d ae 64 96 bd 1f e5 c3 3c
       0.07470137 0.0675722 -0.07343422 0.023912964
000120 6c 13 16 3d 34 51 a0 bb e1 2e 6b 3d 74 bc ed 3c
       0.036639616 -0.0048924927 0.057417754 0.029020526
000130 44 d0 66 bd 11 9f 5e bd 25 18 4f 3c c7 9f 9a 3c
       -0.05635096 -0.054350916 0.012640034 0.018875016
000140 11 42 18 bd c3 1a 3a 3d 87 55 9c 3d c2 88 2e bd
       -0.03717238 0.04543568 0.076335005 -0.04261089
000150 5f 41 92 bc 29 c6 0c bd ba 8a 75 3c 2d 54 68 3d
       -0.017853437 -0.034368668 0.014986688 0.0567209
000160 ce 25 83 bd f5 ab 81 bd fe 70 8b bd b8 61 0c bd
       -0.06403695 -0.06331626 -0.06808661 -0.03427288
000170 f0 88 83 bd 8a dd 5e bd 14 44 48 bd f3 a7 6e bd
       -0.06422603 -0.054410495 -0.04889305 -0.058265638
000180 e0 bd dc bc a7 26 da 3c 76 0b 77 bd 94 de 97 3d
       -0.026946008 0.026629759 -0.060313664 0.074155
000190 aa 34 47 bc c9 5f 8a 3b 08 69 8b 3d 91 fd 52 3d
       -0.012158552 0.0042228443 0.068071425 0.05151135
0001a0 53 bf 66 3d d1 7f 6c 3d 14 74 29 bd 65 af 54 bd
       0.056334805 0.057739083 -0.041370466 -0.05192508
0001b0 85 a5 9e bb 9e 5e 80 bd 0e ba c0 3c 81 7c 46 bd
       -0.004841509 -0.06268047 0.023526218 -0.04845858
0001c0 7d ce 4a bd 22 7b 3c 3d 79 5b 60 3d 29 5f 99 bd
       -0.04951333 0.046015866 0.054774735 -0.074888535
0001d0 ad ab 58 3d 8b 42 61 3c 78 f4 a3 bd 2d 44 96 bd
       0.052898098 0.013748775 -0.08005613 -0.07337222
0001e0 f5 23 9f bd 4a 31 5f bb 14 b5 1b 3d 45 15 8b 3d
       -0.0777053 -0.0034056478 0.038014486 0.06791166
0001f0 93 5d 4e 3d 7f 92 07 bc 0c 5f 72 3d 6c 09 c3 ba
       0.050382208 -0.0082746735 0.059172675 -0.0014880127
000200 c0 cb a6 bd bb 7b 9f 3c 64 6f e6 3b a2 0d 16 bc
       -0.08144331 0.019468179 0.0070323218 -0.009158524
000210 66 5f bb 3c 7d d6 0b 3d 87 2e 4b 3d 06 df 1e bd
       0.022872638 0.0341401 0.04960492 -0.03878691
000220 58 e7 84 3d 7f af 51 3d 69 84 e4 3c 3e f3 58 3d
       0.06489438 0.051192757 0.02789517 0.05296635
000230 90 57 5a 3b bb 95 fa bc 91 5d 49 bd dc a5 8f 3d
       0.0033316351 -0.030588975 -0.049161498 0.07014057
000240 27 f0 13 3d 5f 14 30 3d 72 d8 5a 3c f9 94 20 ba
       0.0361177 0.042988177 0.013357269 -0.0006125714
000250 36 10 20 bd e6 d1 7b bd 00 d6 85 bd 8c a3 70 bd
       -0.03907796 -0.06147947 -0.06534958 -0.05874972
000260 6c f9 3b 3d e4 04 20 bd c2 e6 14 3d b6 3d 3c 3c
       0.045892164 -0.039067164 0.03635288 0.011489322
000270 9e c6 e3 3c 30 49 42 bd 42 09 80 bc 53 0f 21 bc
       0.027804669 -0.04743308 -0.015629414 -0.009830314
000280 6c d4 c8 3c f3 16 95 bc 7f 98 6c bc a1 0e ec bc
       0.024515353 -0.01819942 -0.014440655 -0.02881557
000290 3d ba 94 bd f9 6d d5 bc 39 8e 86 bd c1 81 6c 3d
       -0.07262085 -0.026053416 -0.065700956 0.05774093
0002a0 e8 51 8a bb 54 fb 0d bc 2f 7b a6 bc 48 2d a5 3d
       -0.0042211898 -0.008665878 -0.02032241 0.08065277
0002b0 57 a2 89 bc 66 f9 9d bd 77 19 9f bc 4e d5 37 3d
       -0.016801042 -0.077135846 -0.019421322 0.044881158
0002c0 55 62 53 3c 96 e6 19 3d 23 66 8a 3d dc 64 93 bc
       0.012901862 0.03757342 0.06757762 -0.01799243
0002d0 d1 58 67 bd 1f 93 cb 3c a2 36 31 bc e0 5d cf 3c
       -0.056481186 0.024850426 -0.010816248 0.025313318
0002e0 a8 63 94 bd 56 25 9b 3c e9 dd b9 3b aa 00 78 bd
       -0.072455704 0.018938702 0.0056722057 -0.06054751
0002f0 64 a8 c6 bc fb 2c 36 ba 54 26 a9 3b b6 a1 88 bd
       -0.024250217 -0.00069494516 0.00516204 -0.06671469
000300 5c e9 5b 3c fe a9 8c bc cb 10 2e bb 6a 49 97 3d
       0.013422336 -0.017170902 -0.0026560302 0.073870495
000310 29 07 2b bb 28 e8 60 bc 2c 29 a0 3d 4b 38 0c bb
       -0.0026096797 -0.013727225 0.07820353 -0.0021395858
000320 5f 42 85 3b 0d d4 65 3c 04 3a 5a 3d 11 30 99 3c
       0.00406675 0.014027608 0.053277984 0.018699678
000330 c9 9b 8d 3d b3 92 97 3d c2 ed 2a bd a3 d8 09 bd
       0.06914479 0.074010275 -0.04173065 -0.033653866
000340 34 8e e2 bb 35 67 24 bd 6c 69 0f bd 9a 19 19 3d
       -0.0069139246 -0.04013749 -0.035012648 0.03737793
000350 bd 51 7b 3d 36 4b 87 3d b9 ad b6 bc 90 73 ea 3c
       0.06135725 0.06606142 -0.022299634 0.028619558
000360 17 fd 7a bd 3b b3 9f 3c 06 59 75 3d 0f 2c 72 3d
       -0.06127652 0.019494643 0.059899352 0.05912405
000370 3c 7a 37 3d 6d 58 82 3d 41 f7 27 bd 64 5c d1 bb
       0.044794306 0.06364522 -0.041007284 -0.0063891876
000380 0f 0c 5f bb 0e 6f 83 3d 9d 0f 00 3d 07 5c 1e 3d
       -0.0034034287 0.064176664 0.03126489 0.038661983
000390 73 ab 21 bd 70 78 9d bd 75 01 76 3d 9e 26 8c bc
       -0.039470147 -0.07688987 0.060059983 -0.017108258
0003a0 a5 30 79 3d 73 d0 08 bd 98 13 04 bd 39 cf e4 bc
       0.060837407 -0.033401918 -0.03224525 -0.027930843
0003b0 ed e4 48 bd 63 2d d8 3c 1f f7 9f 3d 94 4b 24 bc
       -0.049046446 0.02638883 0.078108065 -0.010027785
0003c0 da a9 12 3d 6e e3 a1 3c 62 41 d1 bc 92 54 12 3d
       0.035806514 0.019761767 -0.025543872 0.035725184
0003d0 22 54 9d 3d 2a d4 a3 3c 87 94 0c bd 27 77 c1 3c
       0.07682063 0.019998629 -0.034321334 0.023616387
0003e0 39 25 3a bd 27 d3 c1 3b 5b a8 40 3d a3 74 73 bd
       -0.045445655 0.005915064 0.047035556 -0.059437405
0003f0 ae c9 4a bd cf a5 ee bc 3b 3a ae bc a3 44 b1 3c
       -0.049508743 -0.029131798 -0.021268 0.021639174

conv2.bias f4 [16]
000000 7c da fc bc be 75 5f bd d3 0c 7f bc b2 44 3d 3d
       -0.0308659 -0.054555647 -0.015567022 0.04620809
000010 5b cb 8f bd 57 df 0c 3d e7 43 96 3d d7 b9 95 3d
       -0.07021209 0.03439268 0.0733717 0.07310837
000020 aa ec 8f 3d 85 5f 92 bd 72 81 92 3d 91 ef 14 3d
       0.07027562 -0.07147125 0.07153596 0.03636128
000030 cd 69 25 3c 25 a0 86 bd ac 9c 9c bd 0f b5 8a 3d
       0.010096026 -0.06573514 -0.0764707 0.067728154

fc1.weight f4 [120, 400]
000000 a0 3d d7 3c 50 a0 cf bc b2 ec 07 3d 87 62 c6 3c
       0.026274502 -0.025344998 0.033184715 0.024216903
000010 ea 89 38 bd fb 14 22 3d 1a 37 4c 3b 3a 50 f0 bc
       -0.0450534 0.03957079 0.0031160773 -0.02933513
000020 93 39 86 3c a3 4e c7 bc 05 60 1d bd 5f b0 24 3d
       0.016384875 -0.02432949 -0.03842165 0.040207263
000030 07 1f 4d bc 00 51 8a 3c 77 21 f0 bc f0 82 c3 bc
       -0.0125196045 0.016884327 -0.029312832 -0.023866147
000040 60 01 28 bc b2 5f 46 3d 5a f7 2a 3c 9a 93 63 bc
       -0.010254234 0.048431106 0.01043495 -0.013890171
000050 bd 98 85 bc 93 19 10 3c 0d 15 88 bc cd 20 38 bc
       -0.016308183 0.00879516 -0.0166116 -0.011238289
000060 80 2a 3a 3c 33 8f 4d 3b 5b db 1e bd 4d 03 08 3b
       0.011362672 0.003136587 -0.038783412 0.002075392
000070 f0 9e 16 bd 60 8d 41 bc b3 b5 07 bb 3d af f5 3c
       -0.03677267 -0.011813492 -0.0020707666 0.029990787
000080 1a 9e 99 bb ed ad de bc a7 c7 0c 3d ea 9e b7 3c
       -0.0046880366 -0.027182544 0.03437009 0.022414643
000090 33 e2 71 bc 00 90 55 ba e0 dd 2f 3d da 46 0f 3d
       -0.014763403 -0.0008146763 0.042936206 0.03497968
0000a0 75 da 0c bd 10 b6 a1 bc 0d 64 0c 3d 3d 7e fd bc
       -0.034388024 -0.019740134 0.034275103 -0.030943984
0000b0 6d 1e 08 3d 1a cf 1a bd 60 73 25 bc e7 0c af 3c
       0.03323214 -0.037795164 -0.010098308 0.021368457
0000c0 10 9f df 3c 62 47 1e 3d 2a 4a c5 bc ba 9b a9 bc
       0.027297527 0.038642295 -0.024083216 -0.020704139
0000d0 97 8a 80 bc 6a cf ae bc 37 69 99 3c 05 cf 1b 3d
       -0.015691085 -0.021339137 0.018726928 0.038039226
0000e0 ba 4e fd 3c 6a 3b 30 bd 40 a8 0b 3d 33 a3 da 3a
       0.030921329 -0.04302541 0.034096003 0.0016680717
0000f0 cd 20 b5 3b aa df d1 bc 27 ad 08 bd 0d 68 dc 3c
       0.005527592 -0.025619347 -0.033368256 0.026905084
000100 27 f0 f4 3b 93 7b 12 3c 45 af 04 3d cd 74 c1 39
       0.0074749175 0.008940595 0.032393713 0.00036898852
000110 43 df ae 3c 2d be 15 bc 62 58 16 3d f3 e2 17 3c
       0.021346694 -0.00913958 0.036705382 0.0092704175
000120 4f ab 02 3d 2d d4 1b 3d d7 ce ab bc b5 0b 0a bd
       0.031901654 0.038044143 -0.020972652 -0.03370257
000130 2d fa fc 3c 55 3f 13 3d 9a ea 9d 3c 9d 3e 23 3d
       0.030881012 0.03594907 0.019276906 0.039854635
000140 ca b6 d9 3c 17 9b cc 3c 78 26 07 bd c7 a2 0c 3d
       0.026576418 0.024976296 -0.03299567 0.034334924
000150 52 43 42 bd 87 68 ed bc f3 ba 27 3d 83 d3 a3 3c
       -0.047427483 -0.028980507 0.040949773 0.019998318
000160 37 b7 29 3d 85 21 3a 3d 13 fe 2f bd 93 48 97 bc
       0.041434493 0.045442123 -0.042966913 -0.018467223
000170 20 e7 1d 3d 90 24 bf 3c 17 0f 9f bc c2 cf 38 bd
       0.038550496 0.023332864 -0.019416375 -0.04512001
000180 eb 67 07 3d c7 a9 1d 3d 07 44 0f bc 0f 6e 38 3d
       0.03305809 0.03849199 -0.008744246 0.045026835
000190 e3 b4 a1 3c cd 34 20 ba 3a 45 37 bd 65 1e 03 bd
       0.019739574 -0.00061113836 -0.044743754 -0.03201141
0001a0 b7 b8 4b 3d b3 0f 00 3c 00 08 79 3b 13 a9 1b bc
       0.049736705 0.007816243 0.0037999153 -0.00950076
0001b0 33 50 9f 3a 4d a9 ef bc 57 34 26 3d b2 d5 29 bd
       0.0012154639 -0.029255534 0.04057726 -0.04146356
0001c0 9a 68 8c bc 95 79 2c 3d e0 2f a3 3c 4d 7d 25 3c
       -0.017139722 0.042108137 0.01992029 0.010100675
0001d0 9b 22 13 bd 40 5c a4 bb e0 5a 0f bc e3 c5 ef 3c
       -0.035921674 -0.00501588 -0.008749694 0.029269164
0001e0 d0 e7 96 3c 6b 00 45 3d 2a 5a 93 3c 9d 85 47 3d
       0.018421084 0.0480961 0.01798733 0.048711408
0001f0 3d d0 ad 3c 47 e8 2a 3c 4d 76 1c 3d 73 bb 86 3b
       0.02121746 0.010431356 0.038198758 0.004111701
000200 45 22 30 bd 1a 03 00 3d 97 04 12 3d 9a e8 bf 3c
       -0.043001432 0.031252958 0.03564891 0.023426343
000210 68 34 33 3d fa 36 44 3d 4d b8 8d bb ed a4 37 bd
       0.04375115 0.047903992 -0.004324949 -0.04483502
000220 27 8b 24 bd 08 94 4a bd 60 75 04 3c aa 23 14 bd
       -0.04017177 -0.04945758 0.008084625 -0.036166824
000230 e0 7a bc 3c fd 35 c0 3c cd d8 2c bd 95 4f 3b 3d
       0.02300781 0.023463244 -0.042198945 0.045730192
000240 77 76 bf 3c 5d 95 9a bc 8d b1 af 3b 4d 58 78 bc
       0.023371918 -0.01887005 0.005361742 -0.015157771
000250 f3 48 6e bc 53 02 e2 3c 93 f0 23 bd 33 99 8c 3b
       -0.01454376 0.027588999 -0.04002435 0.0042907237
000260 40 31 cb bc c0 06 c3 3c fd 2a 2c 3d 4d 02 2f bb
       -0.024803758 0.02380693 0.042033184 -0.0026704252
000270 7a 32 85 3c d3 ec 33 bc 33 16 c3 3c 00 6c 92 39
       0.01625942 -0.010981756 0.023814296 0.00027927756
000280 cd 8e e1 3c 9a b9 f5 b8 43 cc e3 3c 2d ad cc bc
       0.027533913 -0.00011717081 0.02780736 -0.02498492
000290 35 91 18 bd 67 40 3a 3a 1a a2 eb 3b 8a c1 dd 3c
       -0.037247855 0.00071049336 0.007190955 0.027069826
0002a0 d8 44 3f 3d 4d 77 0c bc 5a b0 8e 3b 0d 8a 8d 3c
       0.046696514 -0.008573365 0.004354519 0.017277742
0002b0 da fc 3f 3d c7 09 52 3c e0 e3 85 bc c0 39 56 bc
       0.046871997 0.012819714 -0.01634401 -0.013075292
0002c0 0a b5 36 bd a7 fe b8 3c aa b2 dd 3c 58 43 15 bd
       -0.044606246 0.022582365 0.027062733 -0.036441177
0002d0 a7 59 82 3b 47 c0 27 3d ad aa 1a 3d 3d 68 c5 3c
       0.0039779725 0.040954854 0.037760425 0.024097556
0002e0 87 73 9d 3c 32 cd 3c 3d 67 e0 b9 3a 12 b4 3f bd
       0.019220127 0.046094127 0.0014181257 -0.046802588
0002f0 77 f5 d4 3c ba 11 11 3d 33 cd 30 bd cb 7c 15 3d
       0.025995953 0.035417296 -0.043164443 0.036495965
000300 45 6c 19 bd 4d 9c 90 bc 25 0f 25 bd 37 2b fc bc
       -0.03745677 -0.017652655 -0.040297646 -0.030782325
000310 37 32 42 3d 5d 36 24 bd ed f4 d7 bc cd 20 89 3a
       0.04741117 -0.040090907 -0.026361907 0.0010462046
000320 f8 94 37 3d b3 cf bf bc 67 1e 42 39 a3 ac c7 3c
       0.044819802 -0.023414468 0.00018512607 0.024374312
000330 c3 78 38 3d 2b fd 02 bd b8 ec 28 bd 0a f2 10 3d
       0.045037042 -0.03197972 -0.041241378 0.035387076
000340 e0 f9 0b 3d eb fc 49 3d 93 26 67 3c 50 7f a7 3c
       0.034173846 0.049313467 0.014108318 0.02044645
000350 2a 7d f0 3c ba ed 43 3c 4d ea 30 3d 9a 30 e3 3a
       0.029356558 0.011958534 0.043192197 0.001733321
000360 fa 34 28 3d b3 ac be 3c 1a ab 18 bd ba 65 3c 3d
       0.041066147 0.023275709 -0.03727255 0.04599545
000370 40 7c f0 bb 50 06 f6 3c a5 59 05 3d 2b e5 23 3d
       -0.0073390305 0.030032307 0.032556195 0.040013473
000380 b5 89 0f 3d ad 65 f7 3c 8d db 48 bd f3 78 a4 3c
       0.035043437 0.03019985 -0.049037505 0.020077204
000390 a0 af a7 bc 27 09 a8 bc 5a 8a 04 bd 00 71 ad 3c
       -0.020469487 -0.020512177 -0.032358505 0.021172047
0003a0 8a d5 a8 3c 9a 6d 2b 3c 43 b5 47 bd 2a 97 4b bd
       0.020609636 0.010463143 -0.04875685 -0.04970471
0003b0 cd f2 ca ba cd eb 34 3d f3 6f 42 3d cd 56 06 3c
       -0.0015483737 0.04417019 0.047470044 0.008199406
0003c0 40 ef 92 bb 2d 66 46 3d ed 2d 39 bc 4f df 26 bd
       -0.004484087 0.048437286 -0.0113024535 -0.040740307
0003d0 27 ea 53 3c 62 38 11 3d ed 6d 3e bd 1a 65 52 3c
       0.012934244 0.03545416 -0.046491552 0.012841487
0003e0 13 01 f4 3c 9f b4 2b bd 9a c9 d3 3a 87 fd 0e bd
       0.029785668 -0.0419203 0.0016158104 -0.03490975
0003f0 7a 4d bf bc 27 a4 4b 3d 0d 77 ba bc ed 8e 0f 3d
       -0.023352373 0.049717095 -0.022761846 0.035048414

fc1.bias f4 [120]
000000 33 e0 e9 3b c7 52 2a bd da 25 fd 3c d2 6a 1d bd
       0.0071373223 -0.04158285 0.030901838 -0.03843195
000010 c7 eb 6f bc 80 1d ae 3c 9a 8f ce bc 2a 53 e8 bc
       -0.014643616 0.021254301 -0.025214959 -0.028359968
000020 80 83 43 bb 5a 7d c8 3c c7 b7 38 bd 67 b0 ba bb
       -0.0029833019 0.024473835 -0.04509714 -0.0056972983
000030 d3 5b 3c 3c 13 bc 8d 3c b3 14 45 bc 27 d4 99 3c
       0.011496502 0.017301595 -0.012028861 0.01877792
000040 75 02 31 bd af e3 28 3d 17 f3 06 bd cd 2c 0f bd
       -0.043215234 0.04123276 -0.032946672 -0.034954835
000050 7a 76 f7 bc 6d 8e c6 3c 63 cf bc bc a0 06 b7 bc
       -0.030207861 0.024237836 -0.023048108 -0.022342026
000060 c8 2c 44 bd f3 54 9e bb b3 5b ac bb 5f fd 43 3d
       -0.04789427 -0.004831904 -0.005259955 0.047849055
000070 27 a4 17 bd 5d 79 06 3d 00 d0 f0 38 b0 f5 a7 3c
       -0.037021782 0.032830585 0.00011482835 0.020502895
000080 8a d6 eb 3c 68 c3 23 3d 0d 14 4f 3c db 5d 38 3d
       0.028788824 0.039981276 0.012639058 0.045011383
000090 b2 6a 2d bd ea d9 a3 3c c8 0a 19 bd 42 73 31 3d
       -0.04233808 0.02000137 -0.037363797 0.04332281
0000a0 0f bf 3d 3d 7f ee 0c 3d 62 51 35 bd ad ea a1 bc
       0.046324786 0.034407135 -0.044267066 -0.019765222
0000b0 73 2e 23 3c 37 e8 e7 bc 77 af 12 3d 35 4b 02 3d
       0.009959805 -0.02830897 0.035811868 0.031810004
0000c0 2a 9f 1b bd 1d f3 2c 3d f2 62 12 bd 30 3d a4 3c
       -0.037993588 0.04222404 -0.035738893 0.020048708
0000d0 f3 ca 13 3d e0 09 90 bc 37 bc 43 bd c5 ef 14 bd
       0.03608222 -0.017582834 -0.047786918 -0.036361475
0000e0 1a 6a f7 bb 30 92 c4 bc e7 24 ce bb 67 01 2d 3c
       -0.00755049 -0.023995489 -0.00629102 0.010559416
0000f0 7b 67 44 3d 13 8f 41 3d 07 d9 77 bc fd 19 b4 bc
       0.04795025 0.047255587 -0.015127427 -0.021985048
000100 67 89 9e 3a 67 c1 24 bc 4d 2f f0 3b a0 0f 49 3c
       0.0012095392 -0.010055876 0.0073298574 0.012271792
000110 9f ba 2e 3d a8 6a 17 3d 8b 82 18 bd 10 4d f7 3c
       0.042658444 0.03696695 -0.03723387 0.030188113
000120 ba 2d 67 3c 1a c8 08 bc 2d 48 45 3d fa ba 26 3c
       0.014110023 -0.008348489 0.048164535 0.010176415
000130 ed c9 72 3c ff cb 1a bd 1d 97 cc 3c 9a 1e fa bc
       0.014818651 -0.037792202 0.0249744 -0.03053217
000140 e7 2e 05 bb 02 7b 19 bd 33 1e c0 3a 2a b8 02 3d
       -0.0020322145 -0.037470825 0.0014657438 0.031913914
000150 dd 13 ce bc e8 89 0b 3d 47 6b 12 bc 10 69 cc 3c
       -0.025155956 0.034067065 -0.00893671 0.024952441
000160 f3 8a 01 3d b2 c1 2b bd 2a c5 1c 3d 20 d0 99 bc
       0.031626653 -0.04193277 0.038273968 -0.018776
000170 f3 37 b5 bc 33 ff 29 bd 8d 5f aa 3c 3a 47 2f 3d
       -0.022121405 -0.041503143 0.020797515 0.042792536
000180 dd 23 0c 3d 0d a9 4c 3c 67 ce 0f bc 8a 0b fb 3c
       0.03421389 0.012491477 -0.0087772375 0.03064515
000190 b8 14 25 bd e3 0c 29 3d 5a a6 ff bc c0 a5 0f bd
       -0.040302962 0.041272055 -0.031207252 -0.03507018
0001a0 90 49 b0 3c 70 d8 37 bd dd 2b 38 3d 6d b0 ca bc
       0.021519452 -0.044884145 0.044963706 -0.02474233
0001b0 72 d0 23 3d 7a 4f 03 3d 5f c7 2b bd 1d 63 18 bd
       0.03999371 0.032058217 -0.041938182 -0.037203897
0001c0 e7 f7 41 3c 73 19 97 bc b3 81 57 bb 13 ba 5a bc
       0.01183889 -0.018444752 -0.0032883703 -0.013350028
0001d0 6d 37 e0 bc 4d fc a5 3c 4b 8b 2e 3d a7 4a 5a bc
       -0.02737018 0.020261908 0.04261331 -0.013323463

fc2.weight f4 [84, 120]
000000 9c 72 02 bd 4c 8a 41 bc 2b c7 07 3d ce 7c a5 bd
       -0.03184758 -0.011812758 0.033148926 -0.08080445
000010 7c 5a b2 bd d9 e4 2e 3d e5 02 79 3d f0 56 b3 3d
       -0.08708665 0.042698715 0.060793776 0.087568164
000020 67 d9 62 3d 93 44 c4 bc 92 1f 85 bd 15 7b 90 3d
       0.055383112 -0.02395848 -0.06500162 0.07054726
000030 11 cc 4e 3d e4 73 ad 3d 37 32 6b 3d 8b 3b 23 3d
       0.05048758 0.0846937 0.057420935 0.039851706
000040 78 f4 00 bc a7 fb 5d bd c8 b3 ca 3b 5d 3e a3 3d
       -0.007870786 -0.054195073 0.0061859824 0.07970879
000050 bc d4 74 bd 11 ac 81 bd 40 3f 30 bd 66 65 c9 bc
       -0.05977319 -0.06331647 -0.04302907 -0.024584483
000060 1c d6 88 bd c6 c9 47 3d f6 66 50 3d b2 0d 1f bc
       -0.06681463 0.04877641 0.05087944 -0.009707855
000070 85 4d 43 3d a4 7e 4a 3d 5c af af bd e2 64 10 bd
       0.04768135 0.04943718 -0.08578369 -0.03525246
000080 83 0c 91 3d 21 86 bd bc 87 8f 70 bd d1 e3 de 3c
       0.070824645 -0.023135247 -0.05873063 0.02720824
000090 17 a6 66 bd e0 7e 9e 3d ae 21 b6 3d 16 49 5e bb
       -0.05631074 0.07739043 0.08893143 -0.0033918074
0000a0 01 e1 27 bc fe 8c bb 3a ab 49 34 bd 00 67 6a bd
       -0.010246516 0.0014308987 -0.044015568 -0.057227135
0000b0 b4 16 9d 3d 9e 7a aa 3d e6 f5 ca bc c0 6f 87 bd
       0.07670346 0.083241686 -0.024775457 -0.066131115
0000c0 21 5e 29 3c 52 49 a5 3d f0 60 31 bd da 6b 6f bd
       0.0103373835 0.08070625 -0.043305337 -0.058452465
0000d0 3b 08 8b 3d fe 48 45 bd dd 8f 92 3d df 54 a3 bd
       0.06788679 -0.048165314 0.07156346 -0.07975172
0000e0 c8 ae 26 3d ef f8 97 3d 27 3f a9 3d 50 b5 7c bd
       0.04069403 0.07420527 0.082639985 -0.06169635
0000f0 09 eb d5 3b 8e 40 0e 3d 48 72 a9 3c 16 0f 1f 3d
       0.0065282625 0.034729533 0.020684376 0.038832746
000100 2f b2 a6 bd 59 0e 90 3d 31 e3 a4 bd 16 5e 74 3d
       -0.081394546 0.070339866 -0.08051146 0.05966004
000110 48 6d 97 bd a0 10 ab bd 22 b3 5f 3b 78 01 ba bc
       -0.073938906 -0.0835278 0.003413387 -0.022705778
000120 e9 14 a7 3c 9d fb 91 bc 5e 26 7c 3d fe b0 8c 3d
       0.020395713 -0.017820174 0.061560027 0.06869696
000130 74 19 c8 bc 30 e3 52 bc 33 ce 4a 3d 4a b9 bb 3c
       -0.0244262 -0.0128715485 0.049513053 0.022915501
000140 13 eb a5 3d 28 a9 3b 3c 03 4a 92 3d 7e 8a fa bc
       0.081014775 0.011453904 0.07143023 -0.030583616
000150 23 32 f3 bc 57 ee 8a 3c 8f 0c c8 bc 49 af 90 3d
       -0.029686993 0.016959352 -0.02442005 0.07064683
000160 15 10 fc bc f7 6c 5b ba b5 98 55 bd 97 3a e4 3c
       -0.030769387 -0.0008370424 -0.052147586 0.027859969
000170 a4 a5 84 3d 0a f5 b9 3d 9d e3 bf 3c 55 43 a8 bd
       0.06476906 0.090799406 0.023423964 -0.082159676
000180 6c 4d a5 bd 0b 9e 18 bd 64 72 44 3d 16 16 e0 3b
       -0.08071408 -0.037260097 0.047960654 0.0068385703
000190 40 b6 8f bd 47 ba 28 3d 9d 1c 9d bc f5 63 eb bc
       -0.07017183 0.041193273 -0.019178683 -0.028734187
0001a0 be 09 1a 3c 8e 53 27 bb 93 e5 6f bb af 31 b9 bd
       0.009401737 -0.002553198 -0.0036605343 -0.090426795
0001b0 ae 3b b2 bd 32 cb e9 bb 37 89 c5 bb e3 af 82 bd
       -0.08702789 -0.0071348185 -0.00602832 -0.06381204
0001c0 2c 8c 88 bd af 58 ab bd 64 54 3d bd 18 49 9d 3b
       -0.06667361 -0.083665244 -0.04622306 0.004799973
0001d0 0b a0 a6 bd 4a 79 15 3d 44 86 16 bd da d2 2a 3d
       -0.081359945 0.036492623 -0.03674914 0.04170499
0001e0 c4 ce ab 3d 7a 49 a3 3d d6 37 a7 bd ef cb 09 3d
       0.08389047 0.07972999 -0.08164947 0.03364175
0001f0 ff ca b8 bd 74 d2 d8 bc 37 d7 b6 bd 71 31 b2 3d
       -0.090230934 -0.02646754 -0.08927768 0.087008364
000200 7b 0a 89 bd 12 91 87 3d db cf 8a 3d db ea 97 3a
       -0.06691452 0.06619467 0.067779265 0.0011590378
000210 06 91 0a 3d a2 a3 94 3d 24 2c 04 3d 75 62 35 3a
       0.03382971 0.07257773 0.03226866 0.00069192733
000220 8b a5 63 bc 24 d3 a9 3d c8 a7 ab 3b db 47 5e 3c
       -0.013894449 0.08292225 0.005238507 0.013566936
000230 22 56 6a 3d 5a cf 7f 3d e4 eb f5 bc ba 8d b5 bb
       0.05721105 0.062453605 -0.030019708 -0.0055405768
000240 c9 83 ad bd 32 60 49 bd 3d 2f 0c bc 4b 44 86 bd
       -0.08472402 -0.049164005 -0.008556184 -0.065559946
000250 e2 74 95 3c 4e 70 b0 bd 45 0a 86 bb 8b 27 b3 3d
       0.01824421 -0.086151704 -0.0040905797 0.087477766
000260 22 74 27 3d 04 40 22 3d 6b f1 ac bc 61 eb 9a bd
       0.040882237 0.03961183 -0.02111121 -0.07564426
000270 02 14 86 bd db 6b 80 3d 46 05 06 3d 6d 15 ad 3d
       -0.06546785 0.06270572 0.032719873 0.08451352
000280 87 6b 54 bd e2 f9 a4 3d 35 44 b1 bd 17 35 e7 ba
       -0.05186036 0.08055474 -0.086555876 -0.0017639723
000290 8f bb 14 3d 19 84 a4 3d 0f a2 46 3c 93 f5 4d bd
       0.036311682 0.08033008 0.012123599 -0.050283026
0002a0 df 78 ba 3c 55 7f 9a 3d 6d 17 82 bc 1d 8d a4 bd
       0.022762714 0.07543818 -0.01588031 -0.08034728
0002b0 a3 38 b3 bd c6 96 49 bd 75 1a 08 3c df 72 1e ba
       -0.08751037 -0.049216054 0.008307089 -0.0006044339
0002c0 45 69 ff bc a5 3e a5 bc 33 5c ac 3d a9 e6 84 3d
       -0.031178126 -0.020171473 0.08416023 0.064893074
0002d0 ca cb a6 3c 9f fa 35 3d e2 1a 3a 3d e7 0f 44 3d
       0.020360846 0.044428464 0.045435794 0.04786673
0002e0 ab 35 db bc 81 a0 37 3d ec 4f 65 3d bc 2d 82 bd
       -0.02675899 0.044830803 0.055984423 -0.063563794
0002f0 19 07 bb bc 04 0e 83 bd 9e 34 77 3d 6c 14 a5 3d
       -0.022830533 -0.06399158 0.060352914 0.08060536
000300 6c f7 96 bd 30 85 45 3d 54 b5 6c 3c ea c4 ba bd
       -0.07371411 0.04822272 0.014447529 -0.091195896
000310 eb 6f 9f 3c 9e 61 9e bb 47 94 aa 3d 5a 58 e4 3c
       0.019462546 -0.004833414 0.08329063 0.02787416
000320 79 61 3f bd 98 3f 23 bc 58 58 b8 3d d6 dd 98 3d
       -0.046723817 -0.009963892 0.09001225 0.07464187
000330 c7 a4 43 bd 36 f2 3f 3d 0b 93 96 3d 8f 42 b2 bd
       -0.047764566 0.04686185 0.07352265 -0.08704101
000340 eb 41 13 b9 39 0c a4 3d 98 bb 57 bb 67 9e 9d bd
       -0.00014043569 0.08010144 -0.003291821 -0.076962285
000350 ad 60 6a bc 7d 5d 5e bc 3d c0 b7 3d fe d2 51 bd
       -0.014305276 -0.013572094 0.089722134 -0.05122661
000360 fc 6b 31 3d 21 fb 57 bd f6 94 4a bd 48 e0 77 bd
       0.043315873 -0.05272973 -0.049458466 -0.060516626
000370 5f 73 85 bb 1b c6 a8 3d d9 f5 90 bd 90 44 83 bd
       -0.004072591 0.082409106 -0.07078142 -0.06409562
000380 25 4e 38 3d 5d 3a a1 3b e9 70 02 3c 44 a7 6a 3d
       0.0449964 0.0049202875 0.00796149 0.057288423
000390 d0 dc 84 3d 3b 9b 1e 3d ee 03 b2 bd f9 39 a5 bd
       0.06487429 0.038722258 -0.08692156 -0.08067698
0003a0 8f 9a c5 3b 1e 37 78 3b 48 a2 2b bd 77 32 a1 bc
       0.0060303877 0.003787465 -0.04190281 -0.019677384
0003b0 e6 c8 97 3d 20 52 5b bb fb 42 9c 3d 42 22 2d 3d
       0.07411365 -0.0033465698 0.07629963 0.042269
0003c0 37 4b 8f 3c 37 92 f9 bc 16 60 36 bd 50 2f 9c 3d
       0.01749192 -0.030465228 -0.04452523 0.07626212
0003d0 ef 22 16 3d 9c 0d 1e 3d 32 dd 96 bc 93 84 85 3d
       0.03665441 0.038587198 -0.018416021 0.06519427
0003e0 fa d2 9a 3d 9c 47 c7 b9 11 a7 50 bd c1 0b 65 3c
       0.07559772 -0.0003800959 -0.050940577 0.013979853
0003f0 95 41 5f 3d 4a 9c 52 3d 16 da a9 bd 6c 90 2f bc
       0.054505903 0.05141858 -0.0829355 -0.010715585

fc2.bias f4 [84]
000000 57 97 bd bc 89 d3 a0 bd 1c 13 ba 3d 3b f0 c5 bc
       -0.023143454 -0.07852847 0.09085676 -0.024162402
000010 f3 d4 88 bd 11 ce 0c 3d e0 0a 82 3c d8 6e 89 bd
       -0.06681242 0.034376208 0.015874326 -0.06710595
000020 25 8a 12 3d f5 8e 7b 3d bc 59 84 3d 2d 5e a6 ba
       0.035776276 0.06141563 0.06462428 -0.0012692861
000030 c4 db cd 3c 1a af f4 3c f1 ec 99 bd 26 ce 76 bd
       0.025129206 0.029868651 -0.07515896 -0.060255192
000040 05 61 58 3d 33 68 81 3c 45 fc 1e 3d 89 e6 8c 3d
       0.0528269 0.015796756 0.0388148 0.068799086
000050 a5 15 ef bc 77 95 8f 3d 0c 43 33 bd 26 53 85 bc
       -0.029185126 0.0701093 -0.043765113 -0.016275
000060 61 d2 90 bc 11 da 80 bc 68 75 73 bd 5f 2c 8d bd
       -0.017678441 -0.015728982 -0.05943814 -0.06893229
000070 36 e9 36 3c 4e a7 b3 bc 85 5b 8e bc 7a 90 46 bd
       0.011164 -0.021930363 -0.017377624 -0.048477627
000080 9b 42 82 3c 38 18 27 bc 19 84 ce bc a9 17 f1 3b
       0.0159009 -0.010198645 -0.025209473 0.007357557
000090 3c 9b 54 bc 4c e1 14 bd a4 e4 29 bb 9c cf c9 3c
       -0.012976464 -0.036347672 -0.0025923634 0.024635129
0000a0 e3 26 13 3d b7 eb 09 bd be cf 01 3d f6 64 da bb
       0.035925757 -0.03367206 0.03169226 -0.0066648675
0000b0 64 a7 3c 3d 98 b8 88 3d 82 2a 51 bd 72 47 6d bd
       0.046058074 0.066758335 -0.05106593 -0.057929464
0000c0 1c 2b 8b 3d c3 19 b4 3d 0a 73 ae 3c bb e7 7a bd
       0.06795332 0.08793976 0.02129509 -0.06125615
0000d0 1b ce 81 3d e8 eb 10 bd d9 67 af 3d 0f a4 74 3a
       0.063381396 -0.035381228 0.08564729 0.0009332308
0000e0 05 95 7c 3d 8f 2f 22 bd ee 11 5b 3d 1b a0 06 3d
       0.061665554 -0.039596137 0.053483896 0.032867532
0000f0 f4 8f a5 3d 51 68 cc bb f4 fd 2a 3d d4 f6 a7 3d
       0.080840975 -0.0062380214 0.041746095 0.082013756
000100 8b ca e5 3c d7 b1 f4 3c b4 45 16 3c 38 b1 8e 3d
       0.028050682 0.029869957 0.009171892 0.069673955
000110 61 36 59 bd a3 e5 32 3b 82 a6 a4 3d 50 54 99 bd
       -0.053030375 0.0027297519 0.08039571 -0.074867845
000120 c2 9c b7 bd 6d d1 23 bd a3 33 ca bc 71 2a 8d 3d
       -0.08965446 -0.039994646 -0.024682825 0.06892861
000130 d4 62 42 bd 6d 8a a6 bc 44 12 64 bc 9c bd 86 3d
       -0.04745753 -0.020329678 -0.0139203705 0.06579134
000140 ed 94 95 3d 69 59 a8 bd ea 9d 9b bc db b9 63 3c
       0.07303796 -0.08220179 -0.018996198 0.013899292

fc3.weight f4 [10, 84]
000000 6e 02 6a 3c 9e fd 46 3d c0 12 11 3d 21 2e d9 bc
       0.014282806 0.048581712 0.035418272 -0.026511254
000010 2c 80 45 3d 90 3b 32 bc 62 6f 19 3c bd e3 c2 3d
       0.048217937 -0.010878459 0.009364935 0.09516094
000020 00 99 f3 3b c9 a7 1c 3d 20 7b 30 3d 91 e2 b9 bd
       0.0074340105 0.03824595 0.04308617 -0.09076417
000030 33 8c b0 3d c8 ea 58 3d 04 89 82 3a 66 33 ce bc
       0.08620491 0.05295828 0.0009959047 -0.025170993
000040 be 1f 0e bc e2 34 c9 3d 85 b6 f2 bc 49 99 c4 bc
       -0.00867456 0.0982454 -0.029628048 -0.023998873
000050 6f 18 ed bb 0c d7 76 bd 4d 12 da bd 57 b8 07 3d
       -0.0072355787 -0.06026368 -0.10648022 0.033134785
000060 2a ac 82 bd b9 2b 9b 3d 06 c3 42 bc b0 f1 a4 bd
       -0.06380494 0.07576699 -0.0118873175 -0.08053911
000070 09 aa 0a bd 5d 72 77 3d b1 8a 5e bc 81 01 f3 bc
       -0.033853564 0.0604118 -0.013582871 -0.029663803
000080 74 19 9a 3d f3 f4 26 bd e7 7f bd 3d 42 d5 13 bd
       0.07524386 -0.040760946 0.09252911 -0.03609205
000090 59 84 f4 3b 56 e1 d1 3d 67 49 a3 bd d7 61 15 3d
       0.007462066 0.102480575 -0.07972985 0.03647026
0000a0 f8 18 d6 3c 5c 20 b8 bd 7c 77 79 bd 9a f5 b1 bd
       0.026134953 -0.08990547 -0.060904965 -0.08689423
0000b0 7b 0a 28 bd 96 05 89 bd 54 4b 48 3d a8 bf 81 3c
       -0.04102562 -0.066905186 0.048899963 0.01583846
0000c0 d3 97 51 bd e4 77 1b 3b 0e a6 d0 bd 2c dc a6 3d
       -0.05117018 0.0023722583 -0.101879224 0.08147463
0000d0 a6 68 dc 3d bd 07 90 3d fc 66 9d 3d 0d 7b 73 3c
       0.107621476 0.07032726 0.07685658 0.014860881
0000e0 41 ea dd bd d8 0f 84 3c 2a 0d c5 bd d7 8d 5a bd
       -0.10835696 0.016120836 -0.096216515 -0.053357925
0000f0 bc 3d c9 bd 0c ba ca bd c2 f0 fa 3c d4 aa 13 bd
       -0.09826228 -0.09898767 0.03063238 -0.036051586
000100 ce 34 a4 bd 7d ab 34 bd fa af b8 bd 67 68 95 bd
       -0.08017884 -0.044108856 -0.0901794 -0.07295304
000110 9c b8 2f 3d e8 b9 5f bc 68 27 91 3d 50 41 83 3d
       0.042900667 -0.013655163 0.07087594 0.06408942
000120 c9 93 10 bd fa 97 9f 3d ae ee 6a bd 7a d3 fe bb
       -0.03529719 0.07792659 -0.05735653 -0.007776675
000130 36 9a 0b 3d 7d e3 52 3c e2 16 9b 3d b8 0e 20 bd
       0.034082614 0.01287162 0.07572724 -0.039076537
000140 30 c9 db 3d b4 b7 d2 bd 00 17 6a 3a 89 c6 83 bd
       0.10731733 -0.10288945 0.0008929819 -0.06434352
000150 31 a5 3f 3d c3 fa 02 bd 9a 84 7a bc 1a 37 86 3d
       0.0467884 -0.031977426 -0.015290404 0.065534785
000160 f2 07 a1 3d 50 0f 91 3d c6 8d ef 3a e3 68 47 3d
       0.078628436 0.07082999 0.0018276505 0.048684012
000170 44 93 f5 ba ee 1f 55 3c 41 8c 34 3d 67 88 0f 3d
       -0.0018735905 0.013008101 0.04407907 0.035042193
000180 e1 4f 9e 3d 7d aa c7 3d 45 b7 cd 3d 0c d0 d8 3c
       0.077300794 0.09749315 0.100447215 0.026466392
000190 aa 44 ae bd f5 ea ad 3d ac 8b 51 bd 1c f4 97 bd
       -0.085091904 0.0849208 -0.051158592 -0.07419607
0001a0 67 58 ec 3a 8d cc 9d 3c c8 53 87 3c 25 da 27 3d
       0.0018031717 0.019262576 0.016519442 0.040979523
0001b0 fb cf 3e bd e9 74 e2 3c 26 db 3a bd ba 2f d8 3d
       -0.046585064 0.027643638 -0.045619152 0.10555978
0001c0 06 a0 0b 3d 62 b3 41 bd e7 ea 86 3c 55 ed 83 3d
       0.034088157 -0.047290213 0.016469432 0.06441752
0001d0 3e ad c5 bd 60 4f 15 3c 18 2f 21 bc 02 f0 ca bb
       -0.09652184 0.009113163 -0.009837888 -0.006193162
0001e0 25 4a 83 bd 27 53 38 bd 61 a0 17 3d 79 07 15 3c
       -0.06410626 -0.045001175 0.037018184 0.00909602
0001f0 33 99 ab bd 67 4b b4 3d 91 38 dc bc af 35 a5 3a
       -0.0837883 0.08803444 -0.026882442 0.00126045
000200 01 df 8c bd b0 f8 9d bd 55 93 7a bd e6 08 da 3d
       -0.06878472 -0.07713449 -0.061175663 0.106462285
000210 b7 53 dc 3d f8 1c bd bd c6 71 d8 bd ff ae cd bb
       0.10758155 -0.09234041 -0.105685756 -0.0062769647
000220 1e e7 b3 3d ab a6 77 bd ed 87 93 3d 69 31 8e 3d
       0.087843165 -0.06046168 0.0720366 0.06943018
000230 3b e2 39 bc f0 73 8d bd 3b 6e 36 3c 15 3f 2d bd
       -0.011345441 -0.06906879 0.011134679 -0.042296488
000240 90 e7 b1 3d b0 20 30 bd 9a 92 b3 3d e4 df d1 3d
       0.08686745 -0.042999923 0.087681964 0.10247782
000250 9b 8d 2f bd 25 ea 1e bc ce ba 19 3d 48 d1 a7 bd
       -0.042859655 -0.009699379 0.037531666 -0.08194214
000260 43 6f 79 bd 38 56 95 bc a1 8c 43 3d 6f 8b 3e bd
       -0.060897123 -0.018229589 0.047741536 -0.046519693
000270 6a fa a1 3d 13 96 2b 3d d2 08 7a bc 18 da b5 bd
       0.07909091 0.04189117 -0.015260892 -0.08879489
000280 48 30 a5 bd a5 69 0b 3c 08 1c a9 3b f4 e1 2e 3d
       -0.080658495 0.008509074 0.0051608123 0.042695954
000290 48 e1 81 bd c1 71 1a bc 91 4e 09 3d 76 66 8b bd
       -0.06341797 -0.009426535 0.033522192 -0.06806652
0002a0 e4 c0 a8 bd 14 83 cd bd 39 41 f3 3c db 5a 68 bd
       -0.08239916 -0.10034767 0.029694187 -0.05672727
0002b0 ff c7 98 bd ca 64 d6 bd e7 73 e2 bc 12 fb b8 3d
       -0.07460021 -0.10468443 -0.027643157 0.09032263
0002c0 5a 55 eb bc d3 9d b5 3d cd 00 3d bb 99 29 25 3d
       -0.028727222 0.08867993 -0.0028839589 0.040322874
0002d0 11 1c 5f bd bc 61 33 3d 70 9c 91 3d e3 64 18 bc
       -0.054470126 0.04379438 0.07109916 -0.009301397
0002e0 cd ca 87 bd 21 34 bf 3c df 0b 97 bd 7d 93 d5 bd
       -0.06630478 0.023340287 -0.07375311 -0.10428522
0002f0 c3 2b 98 bd 82 2e c8 3c 19 2b e2 bc 3f 9e 10 3d
       -0.07430222 0.02443624 -0.027608441 0.035307165
000300 bf 4d 09 3d 47 1a 22 3d 98 2e 61 bd 3a fe a5 bc
       0.03352141 0.03957584 -0.054976076 -0.020262826
000310 8a 02 73 bc 2c 4b 98 3d 7d 71 43 bc 5d da 96 bd
       -0.014832148 0.07436213 -0.011928913 -0.07365868
000320 e5 fe 88 3d 17 5e a4 bd d7 6e cd 3d 38 b1 cf 3d
       0.06689242 -0.08025759 0.10030907 0.10141224
000330 97 fd 5c 3d 1e 55 de bd 22 ae 30 bc d6 e8 03 3c
       0.05395278 -0.108560786 -0.010783704 0.008051118
000340 5b f2 41 3d ab f0 d1 3c 6f aa ac bc d4 70 00 bd
       0.04735027 0.025627455 -0.021077363 -0.0313576
000350 d8 0c 08 bd d5 05 1a bd b2 12 a2 bc 52 cc 8f 3d
       -0.033215374 -0.037603218 -0.019784305 0.07021393
000360 ef bf 90 bc 7b d4 da 3d 42 b1 7e bd 77 85 63 3c
       -0.017669646 0.10685059 -0.062180765 0.013886801
000370 f2 d7 97 3c be a1 3b bc 6f 27 df 3d a4 4e 90 3d
       0.018535588 -0.011452137 0.10896193 0.070462495
000380 05 d0 43 3d fa a2 98 bd be 54 ba bd f1 6b 92 bd
       0.047805805 -0.0745296 -0.090981945 -0.071494944
000390 29 94 cc bc 4b 6d 72 bd c8 8e 79 3b 38 29 f3 3c
       -0.024972992 -0.05918626 0.003807949 0.02968274
0003a0 64 e9 fa 3c c2 2d a3 3d b0 e4 6d bd 28 20 22 3d
       0.030628867 0.07967712 -0.05807942 0.039581448
0003b0 a5 dd dd 3c 1d ed ae 3d 6c 36 be bc 28 44 ee 3c
       0.027083227 0.085413195 -0.02321931 0.029085234
0003c0 6e fe 66 3b 3d 03 5c bd f8 03 2a 3d d5 af d6 bd
       0.0035246867 -0.053714026 0.04150769 -0.10482756
0003d0 b2 34 e4 3c 94 7c 9a 3d 4e ea ca 3c 17 3b ac 3c
       0.027857158 0.07543293 0.024769928 0.02102427
0003e0 a1 76 ae 3c dd 15 d3 3d 37 0b df bd a3 6b c2 bd
       0.021296801 0.103069045 -0.10890811 -0.09493186
0003f0 53 e4 a3 bd c3 7a 5e bc cc 3e a4 bc 5d 22 00 bd
       -0.08002534 -0.013579073 -0.020049475 -0.03128277

fc3.bias f4 [10]
000000 28 13 30 3d a9 a7 e6 3c bc 36 a7 bd 58 a9 53 bd
       0.04298702 0.028156118 -0.08164737 -0.05167517
000010 ae 74 78 3c 8f 54 7d 3d 98 d6 6a 3c 1c 4a 26 3c
       0.015164537 0.06184822 0.01433339 0.010149505
000020 2a 78 4f 3c 53 cb 25 bd
       0.012662927 -0.04047711
